…
[32m[2023-03-16 09:57:23 fvcore.nn.jit_analysis][33m(jit_analysis.py 511)[39m: WARNING The following submodules of the model were never called during the trace of the graph. They may be unused, or they were accessed by direct calls to .forward() or via other python methods. In the latter case they will have zeros for statistics, though their statistics will still contribute to their parent calling module.
layer1.0.shortcut, layer1.1.shortcut, layer2.1.shortcut, layer3.1.shortcut, layer4.1.shortcut
[32m[2023-03-16 09:57:23 root][33m(main.py 72)[39m: INFO N/A indicates a possibly missing statistic due to how the module was called. Missing values are still included in the parent's total.
ResNet18(
  #params: 11.18M, #flops: 0.56G
  (conv1): Conv2d(
    3, 64, kernel_size=(3, 3), stride=(1, 1), padding=(1, 1), bias=False
    #params: 1.73K, #flops: 1.77M
  )
  (bn1): BatchNorm2d(
    64, eps=1e-05, momentum=0.1, affine=True, track_running_stats=True
    #params: 0.13K, #flops: 0.33M
  )
  (layer1): Sequential(
    #params: 0.15M, #flops: 0.15G
    (0): ResNetBlock(
      #params: 74.11K, #flops: 76.15M
      (conv1): Conv2d(
        64, 64, kernel_size=(3, 3), stride=(1, 1), padding=(1, 1)
        #params: 36.93K, #flops: 37.75M
      )
      (bn1): BatchNorm2d(
        64, eps=1e-05, momentum=0.1, affine=True, track_running_stats=True
        #params: 0.13K, #flops: 0.33M
      )
      (conv2): Conv2d(
        64, 64, kernel_size=(3, 3), stride=(1, 1), padding=(1, 1)
        #params: 36.93K, #flops: 37.75M
      )
      (bn2): BatchNorm2d(
        64, eps=1e-05, momentum=0.1, affine=True, track_running_stats=True
        #params: 0.13K, #flops: 0.33M
      )
      (shortcut): Sequential(#params: 0, #flops: N/A)
    )
    (1): ResNetBlock(
      #params: 74.11K, #flops: 76.15M
      (conv1): Conv2d(
        64, 64, kernel_size=(3, 3), stride=(1, 1), padding=(1, 1)
        #params: 36.93K, #flops: 37.75M
      )
      (bn1): BatchNorm2d(
        64, eps=1e-05, momentum=0.1, affine=True, track_running_stats=True
        #params: 0.13K, #flops: 0.33M
      )
      (conv2): Conv2d(
        64, 64, kernel_size=(3, 3), stride=(1, 1), padding=(1, 1)
        #params: 36.93K, #flops: 37.75M
      )
      (bn2): BatchNorm2d(
        64, eps=1e-05, momentum=0.1, affine=True, track_running_stats=True
        #params: 0.13K, #flops: 0.33M
      )
      (shortcut): Sequential(#params: 0, #flops: N/A)
    )
  )
  (layer2): Sequential(
    #params: 0.53M, #flops: 0.14G
    (0): ResNetBlock(
      #params: 0.23M, #flops: 59.21M
      (conv1): Conv2d(
        64, 128, kernel_size=(3, 3), stride=(2, 2), padding=(1, 1)
        #params: 73.86K, #flops: 18.87M
      )
      (bn1): BatchNorm2d(
        128, eps=1e-05, momentum=0.1, affine=True, track_running_stats=True
        #params: 0.26K, #flops: 0.16M
      )
      (conv2): Conv2d(
        128, 128, kernel_size=(3, 3), stride=(1, 1), padding=(1, 1)
        #params: 0.15M, #flops: 37.75M
      )
      (bn2): BatchNorm2d(
        128, eps=1e-05, momentum=0.1, affine=True, track_running_stats=True
        #params: 0.26K, #flops: 0.16M
      )
      (shortcut): Sequential(
        #params: 8.58K, #flops: 2.26M
        (0): Conv2d(
          64, 128, kernel_size=(1, 1), stride=(2, 2)
          #params: 8.32K, #flops: 2.1M
        )
        (1): BatchNorm2d(
          128, eps=1e-05, momentum=0.1, affine=True, track_running_stats=True
          #params: 0.26K, #flops: 0.16M
        )
      )
    )
    (1): ResNetBlock(
      #params: 0.3M, #flops: 75.83M
      (conv1): Conv2d(
        128, 128, kernel_size=(3, 3), stride=(1, 1), padding=(1, 1)
        #params: 0.15M, #flops: 37.75M
      )
      (bn1): BatchNorm2d(
        128, eps=1e-05, momentum=0.1, affine=True, track_running_stats=True
        #params: 0.26K, #flops: 0.16M
      )
      (conv2): Conv2d(
        128, 128, kernel_size=(3, 3), stride=(1, 1), padding=(1, 1)
        #params: 0.15M, #flops: 37.75M
      )
      (bn2): BatchNorm2d(
        128, eps=1e-05, momentum=0.1, affine=True, track_running_stats=True
        #params: 0.26K, #flops: 0.16M
      )
      (shortcut): Sequential(#params: 0, #flops: N/A)
    )
  )
  (layer3): Sequential(
    #params: 2.1M, #flops: 0.13G
    (0): ResNetBlock(
      #params: 0.92M, #flops: 58.97M
      (conv1): Conv2d(
        128, 256, kernel_size=(3, 3), stride=(2, 2), padding=(1, 1)
        #params: 0.3M, #flops: 18.87M
      )
      (bn1): BatchNorm2d(
        256, eps=1e-05, momentum=0.1, affine=True, track_running_stats=True
        #params: 0.51K, #flops: 81.92K
      )
      (conv2): Conv2d(
        256, 256, kernel_size=(3, 3), stride=(1, 1), padding=(1, 1)
        #params: 0.59M, #flops: 37.75M
      )
      (bn2): BatchNorm2d(
        256, eps=1e-05, momentum=0.1, affine=True, track_running_stats=True
        #params: 0.51K, #flops: 81.92K
      )
      (shortcut): Sequential(
        #params: 33.54K, #flops: 2.18M
        (0): Conv2d(
          128, 256, kernel_size=(1, 1), stride=(2, 2)
          #params: 33.02K, #flops: 2.1M
        )
        (1): BatchNorm2d(
          256, eps=1e-05, momentum=0.1, affine=True, track_running_stats=True
          #params: 0.51K, #flops: 81.92K
        )
      )
    )
    (1): ResNetBlock(
      #params: 1.18M, #flops: 75.66M
      (conv1): Conv2d(
        256, 256, kernel_size=(3, 3), stride=(1, 1), padding=(1, 1)
        #params: 0.59M, #flops: 37.75M
      )
      (bn1): BatchNorm2d(
        256, eps=1e-05, momentum=0.1, affine=True, track_running_stats=True
        #params: 0.51K, #flops: 81.92K
      )
      (conv2): Conv2d(
        256, 256, kernel_size=(3, 3), stride=(1, 1), padding=(1, 1)
        #params: 0.59M, #flops: 37.75M
      )
      (bn2): BatchNorm2d(
        256, eps=1e-05, momentum=0.1, affine=True, track_running_stats=True
        #params: 0.51K, #flops: 81.92K
      )
      (shortcut): Sequential(#params: 0, #flops: N/A)
    )
  )
  (layer4): Sequential(
    #params: 8.4M, #flops: 0.13G
    (0): ResNetBlock(
      #params: 3.67M, #flops: 58.84M
      (conv1): Conv2d(
        256, 512, kernel_size=(3, 3), stride=(2, 2), padding=(1, 1)
        #params: 1.18M, #flops: 18.87M
      )
      (bn1): BatchNorm2d(
        512, eps=1e-05, momentum=0.1, affine=True, track_running_stats=True
        #params: 1.02K, #flops: 40.96K
      )
      (conv2): Conv2d(
        512, 512, kernel_size=(3, 3), stride=(1, 1), padding=(1, 1)
        #params: 2.36M, #flops: 37.75M
      )
      (bn2): BatchNorm2d(
        512, eps=1e-05, momentum=0.1, affine=True, track_running_stats=True
        #params: 1.02K, #flops: 40.96K
      )
      (shortcut): Sequential(
        #params: 0.13M, #flops: 2.14M
        (0): Conv2d(
          256, 512, kernel_size=(1, 1), stride=(2, 2)
          #params: 0.13M, #flops: 2.1M
        )
        (1): BatchNorm2d(
          512, eps=1e-05, momentum=0.1, affine=True, track_running_stats=True
          #params: 1.02K, #flops: 40.96K
        )
      )
    )
    (1): ResNetBlock(
      #params: 4.72M, #flops: 75.58M
      (conv1): Conv2d(
        512, 512, kernel_size=(3, 3), stride=(1, 1), padding=(1, 1)
        #params: 2.36M, #flops: 37.75M
      )
      (bn1): BatchNorm2d(
        512, eps=1e-05, momentum=0.1, affine=True, track_running_stats=True
        #params: 1.02K, #flops: 40.96K
      )
      (conv2): Conv2d(
        512, 512, kernel_size=(3, 3), stride=(1, 1), padding=(1, 1)
        #params: 2.36M, #flops: 37.75M
      )
      (bn2): BatchNorm2d(
        512, eps=1e-05, momentum=0.1, affine=True, track_running_stats=True
        #params: 1.02K, #flops: 40.96K
      )
      (shortcut): Sequential(#params: 0, #flops: N/A)
    )
  )
  (linear): Linear(
    in_features=512, out_features=10, bias=True
    #params: 5.13K, #flops: 5.12K
  )
)
[32m[2023-03-16 09:57:23 root][33m(main.py 73)[39m: INFO number of params: 11.178698 M
[32m[2023-03-16 09:57:23 root][33m(main.py 74)[39m: INFO flops: 558.49472 MFLOPS
Traceback (most recent call last):
  File "/home/sselvan/NMEP/sp23-nmep-hw1/main.py", line 257, in <module>
    main(config)
  File "/home/sselvan/NMEP/sp23-nmep-hw1/main.py", line 80, in main
…
